model/best_model.pth (torch, 793999 bytes, 12 tensors)

encoder.0.weight f4 [160, 184]
000000 ba 3b 4a bc 33 f3 bc 3d 5b 60 2b bc f5 b4 1e 3d
       -0.0123433415 0.09226074 -0.010459985 0.038746793
000010 3e ac d1 3b c1 31 08 be dd 80 1b 3d 9d a4 b2 3d
       0.0063987067 -0.1330023 0.03796469 0.08722804
000020 e2 63 8f ba 75 e4 1d be 54 10 d2 bc 06 cb a2 3c
       -0.0010939802 -0.1541918 -0.025642551 0.0198722
000030 60 dd 00 3d 46 02 4a bc 92 61 6b 3d 96 6a 5c 3d
       0.03146112 -0.012329644 0.057466097 0.053812586
000040 8b 0f 1a 3d bc 61 c3 bd 26 69 41 3d 02 01 ee bd
       0.03761248 -0.09540126 0.047219418 -0.11621286
000050 a5 b1 2e 3d 18 77 8d bc e5 3e a4 bb c0 82 54 3d
       0.042649884 -0.017268702 -0.0050123804 0.051882505
000060 ff 2c 87 3d cb a8 e3 3d 8a 06 ae bd a6 ce 14 3e
       0.06600379 0.11116179 -0.08497341 0.14531955
000070 40 2a ca 3c fc 7f 0f be 79 b1 9f 3d 64 ba 83 bd
       0.02467835 -0.14013666 0.07797522 -0.064320356
000080 f7 3c d1 3d b0 4e 07 bd 19 7d 82 bc 7c b1 81 3d
       0.10216706 -0.033034027 -0.015928792 0.063326806
000090 33 03 19 3e ba 22 fc bd 4b 6d b1 3c 7f ac 0b 3c
       0.14942627 -0.12311311 0.02165856 0.008525013
0000a0 a1 1c 84 3d cf f9 a8 3d 02 6d 88 3d da 62 dd 3c
       0.06450773 0.08250772 0.066614166 0.027024675
0000b0 ed 84 43 bd da ac ad bd 65 4d 00 3d 2e 6a 52 bc
       -0.04773419 -0.084802344 0.03132381 -0.012842698
0000c0 cd be 08 3d f1 e4 d2 bd 1d 35 98 3d ee b8 9f 3d
       0.033385087 -0.10297573 0.074320056 0.077989444
0000d0 32 e9 88 3a a6 17 2c bd e1 c9 4e bc c9 34 aa ba
       0.0010445474 -0.04201474 -0.012621374 -0.0012985702
0000e0 4c 12 3a 3d 5d 2b 67 3d 98 51 7d bb 16 47 ce bc
       0.045427606 0.05643784 -0.003865337 -0.02518038
0000f0 37 02 78 bc 6d cb 0f bb bf 85 95 3b 7e 0c 02 3e
       -0.015137247 -0.002194132 0.004563063 0.12700078
000100 43 a0 87 3c 53 cc ec bd e6 8b 02 3d 02 da 33 3e
       0.01655591 -0.11562409 0.0318717 0.17563632
000110 fb 34 ca 3c 97 85 42 bd d7 05 87 bc f8 b7 15 3e
       0.024683466 -0.047490682 -0.016482277 0.1462096
000120 fa 35 f2 bc b3 a8 ac bb 65 82 3f bd 71 d3 12 3d
       -0.029566754 -0.005269134 -0.046755213 0.035846177
000130 ed 54 7c 3c d6 e9 31 be e2 b8 d8 3b 18 35 44 3d
       0.015401107 -0.17374358 0.0066138366 0.047902197
000140 ea 7f 19 3d b9 fe e0 bd 52 8c dc 3d d7 f2 29 3e
       0.037475504 -0.109860845 0.107689515 0.16596542
000150 d3 59 ba bb fa be a3 bd 9b bb 36 bd c6 e7 b1 bc
       -0.0056869774 -0.0799541 -0.04461251 -0.021716963
000160 3f e9 d2 3c 2c 18 06 3e 71 98 89 3d 4c f7 94 3d
       0.025745986 0.13095158 0.06718529 0.07273731
000170 bc ea a7 bd 90 fd 09 bc da cd a6 bd f3 6f 31 bd
       -0.08199069 -0.00842227 -0.08144732 -0.043319654
000180 2c c0 9f bd 6d 0b 18 3d 7c 1f b8 bc a0 eb 06 bd
       -0.07800326 0.03712027 -0.02247595 -0.032939553
000190 37 2f 34 3d ed 29 76 bd 96 04 95 bd 8d 58 ab 3b
       0.04399034 -0.060098577 -0.07276265 0.005229062
0001a0 d4 18 2d bd 13 dc 7a 3d f8 3a 93 bd 17 d1 b8 bd
       -0.042260006 0.061245035 -0.07188982 -0.09024256
0001b0 5a 19 04 3e c0 54 e2 3d 1c 6b 68 3c 35 b4 fb bb
       0.12900296 0.11051321 0.014185693 -0.0076813945
0001c0 d7 92 78 3d 8c b7 2b bd a2 d9 89 bd 71 0b f0 bd
       0.060686912 -0.04192309 -0.06730963 -0.11720932
0001d0 e6 79 f0 bd 74 ee 5e 3c 15 fa a1 3d da 82 ff 3c
       -0.11742 0.013606656 0.079090275 0.031190325
0001e0 26 dd 67 3d db 17 86 3d e0 55 b9 bc 4a 74 ad bd
       0.056607388 0.06547519 -0.022623956 -0.08469446
0001f0 63 5a 14 3d 73 66 ae bc 39 b1 a9 3c 11 a8 e5 3c
       0.036219012 -0.021289086 0.02071439 0.028034242
000200 47 66 f5 3d 28 84 21 bd 9d 6b a7 3c 6a 6d 16 3d
       0.119823985 -0.039432675 0.020437056 0.03672544
000210 49 7c 98 bc aa 22 da 3b 18 d8 de bd 0d 77 6e 3d
       -0.018613951 0.0066569643 -0.1088106 0.058219004
000220 ba fa 8f bb 3f 92 64 3d e1 eb a6 bd 8f b5 96 3d
       -0.0043939026 0.055803534 -0.08150459 0.07358848
000230 12 d5 8c bd 9e 2d ed bd b4 25 15 bd a3 6c 7c 3b
       -0.068765774 -0.115809664 -0.03641291 0.00385169
000240 42 38 61 bd c5 2c 00 3d 35 cb 41 3c 1b 47 8b 3c
       -0.054985292 0.031292696 0.0118282335 0.01700168
000250 ec d8 84 bd 81 23 c7 3d 1c 7a f1 bc f9 53 6f bd
       -0.06486687 0.09723569 -0.029477172 -0.058429692
000260 f9 88 08 3d eb 3b 34 bd a2 95 c3 3c c5 71 81 bd
       0.033333752 -0.044002455 0.023875061 -0.06320528
000270 cf e9 f9 3a 96 9e b4 bb 86 30 b5 3c e1 e7 93 bd
       0.0019066873 -0.005512069 0.022117864 -0.07221962
000280 f9 ef 16 3d cc 2f f0 3b 9b fe cb 3c 4f 26 48 bc
       0.03684995 0.0073299166 0.024901679 -0.012216165
000290 29 14 14 3c f9 90 3e bd b4 ad f6 bd c8 c9 08 bd
       0.00903801 -0.046524975 -0.1204485 -0.03339556
0002a0 79 21 8e 3d 3a 7e 24 be 76 21 b4 3d dc 2f 8d bc
       0.06939978 -0.16063777 0.08795445 -0.017234735
0002b0 b0 14 ef bd 3f b1 0d 3d 87 7e 45 bc 34 a2 c9 bc
       -0.11673868 0.034592863 -0.012054092 -0.024613477
0002c0 b5 05 99 3d 25 80 06 3e 75 69 d5 3b 69 4b 6c 3c
       0.07471792 0.13134821 0.0065128156 0.014422276
0002d0 d1 90 e0 bc d0 27 bf bb 79 5b 69 3c b9 27 3c bd
       -0.027412804 -0.0058336034 0.014243 -0.04593632
0002e0 a6 53 04 3e 66 86 c3 bc ee 5c 8e 3d 7e 39 f6 bb
       0.12922534 -0.023867797 0.06951319 -0.007514178
0002f0 3a 5b 8f bd 6c 3d 85 bd 1f 2e 18 bc 56 ce fc bd
       -0.06999822 -0.06505856 -0.00928834 -0.12344043
000300 fd a5 98 bd a6 99 27 bb b6 3b 5a bd 75 d9 09 3e
       -0.07453535 -0.002557376 -0.0532796 0.1346186
000310 df 9a 50 bb c6 72 c2 3d a7 7f d0 bc 31 b7 31 3e
       -0.0031830592 0.094945475 -0.025451494 0.17355038
000320 57 c0 f5 3c 95 93 cc 3d b6 61 d2 3b 5f 94 97 3d
       0.029998941 0.099890865 0.0064203395 0.074013464
000330 c8 b6 83 bd ee 7f dc 3c b2 97 22 3d 37 a7 59 bd
       -0.06431347 0.02691647 0.03969545 -0.053137984
000340 cc 10 bc bd 3c 6b c9 bd e6 2f 87 3d f3 8e 0f 3d
       -0.09182891 -0.098349065 0.06600933 0.035048436
000350 ff 12 63 3c 92 59 2d 3d c1 d9 0b 3d 04 50 92 bd
       0.0138595095 0.04232175 0.034143213 -0.07144168
000360 d6 f6 0e 3d 1d ed 30 bc 4a 99 2c 3d c4 8f 7f bd
       0.03490337 -0.01079872 0.042138375 -0.062392965
000370 2d 8e 89 3c 4a c9 a6 bd 57 c7 a8 bd 14 cc ad bd
       0.016791428 -0.081438616 -0.08241146 -0.084861904
000380 85 14 21 3d 72 78 2d 3d 61 32 93 3d 06 72 2e 3d
       0.03932621 0.042351194 0.071873434 0.04258921
000390 9e 18 a3 bd 52 28 6f bb 5e e1 c3 bd 66 0e 98 3d
       -0.0796368 -0.0036492539 -0.0956447 0.07424621
0003a0 ee e1 5c 3d 27 dc 6c bc ce e1 42 3c 60 13 d8 bd
       0.0539264 -0.014456785 0.011894656 -0.105505705
0003b0 af f1 bd 3d 39 b0 e0 3d 32 44 25 3d d6 22 49 bd
       0.09274613 0.10971112 0.04034824 -0.049105488
0003c0 b1 e6 e1 bc bb a5 af bc 31 1f 3e 3c 4e 75 03 be
       -0.027575823 -0.021441331 0.011604116 -0.12837717
0003d0 98 56 c0 bb d4 0d 96 bd 24 72 2d bc a1 c6 e3 bd
       -0.005869698 -0.07326856 -0.010586295 -0.1112187
0003e0 98 35 81 3d f3 c8 23 3e cc f1 9e 3c eb 20 93 3d
       0.0630905 0.15994625 0.019402407 0.07184013
0003f0 59 e0 2d 3d 4d dc bb bc f0 65 7f bb 03 e2 6a 3c
       0.042450283 -0.022932196 -0.0038970672 0.014336112

encoder.0.bias f4 [160]
000000 c4 16 5a 3e 93 82 5e 3e 82 12 6a 3e 69 4f 61 3e
       0.21297747 0.21729498 0.22858623 0.22002949
000010 67 7e 35 3e 43 4d d5 3d 06 c8 39 3e 6e b3 23 3e
       0.17724 0.10415127 0.18142709 0.15986416
000020 12 9f 5c 3e e9 50 6d 3e 70 9e 73 3e ec 15 04 3e
       0.21545056 0.23175396 0.23790908 0.12898988
000030 2c 1f 09 3e 7d f4 65 3e ce 6f 46 3e 71 45 60 3e
       0.13390797 0.22456546 0.19378588 0.2190149
000040 b3 9b 5e 3e 9b 1a 05 3e 0e c4 a1 3e 7e 2a 34 3e
       0.21739082 0.1299843 0.3159489 0.17594334
000050 a9 8a 3b 3e 8b ee 94 3e 4a ff b9 3d 64 20 81 3e
       0.18314613 0.29088244 0.09081896 0.25220025
000060 8b 8e 17 3e 8a 32 34 3e 86 ca 11 3e 8f 81 83 3e
       0.1480047 0.17597404 0.14237413 0.25684783
000070 61 b2 28 3e 07 03 2a 3e d3 bf 53 3e 8c 6d 81 3e
       0.16474296 0.16602717 0.20678644 0.2527889
000080 51 f5 50 3e 00 37 41 3e 75 b6 5e 3e 5f d1 56 3e
       0.20406081 0.18868637 0.2174929 0.20978306
000090 cb e3 37 3e ed 50 77 3e e8 2c 0e 3e 97 99 8a 3e
       0.1795799 0.24151964 0.13884318 0.27070305
0000a0 c8 ca a6 3d e5 a3 4e 3e 74 24 06 3e 08 7b 51 3e
       0.08144146 0.20179708 0.13099843 0.20457089
0000b0 fd 3c 98 3e 18 b9 15 3e 06 5d 73 3e 3d 4f 38 3e
       0.2973403 0.14621389 0.23765954 0.17998977
0000c0 1b 75 3f 3e a7 a8 50 3e 6b 4b 72 3e 82 dc 0d 3e
       0.18697016 0.20376836 0.23661582 0.13853648
0000d0 7d 5c 3d 3e de 96 4b 3e 30 51 72 3e 20 a4 4e 3e
       0.18492313 0.1988177 0.23663783 0.20179796
0000e0 59 7b 64 3e 60 a2 1b 3e 20 07 61 3e d0 ae 25 3e
       0.22312678 0.1519866 0.21975374 0.16179967
0000f0 4d 1d 36 3e f7 be 78 3e ec 17 1d 3e f0 8f 08 3e
       0.17784615 0.24291597 0.15341157 0.13336158
000100 c8 ae 69 3e ae c0 1c 3e 2c 31 50 3e 12 c6 6d 3e
       0.2282058 0.15307876 0.20331258 0.23220089
000110 84 07 03 3e 0c 45 54 3e 0e 68 7d 3e d5 7b 24 3e
       0.12795836 0.20729464 0.24746725 0.16062863
000120 db f2 34 3e 36 9d 3c 3e 08 40 6d 3e a9 f4 5c 3e
       0.17670767 0.18419346 0.23168957 0.21577705
000130 97 c0 3f 3e 55 34 01 3e c8 99 30 3e ee f9 47 3e
       0.18725811 0.1261762 0.17246163 0.19528934
000140 d3 99 c7 3d 7b 30 73 3e ce 33 15 3e 38 16 39 3e
       0.097461365 0.23748963 0.14570543 0.18074882
000150 40 38 8b 3e 39 09 75 3e f1 8c 3c 3e 9c 44 fa 3d
       0.27191353 0.239293 0.1841314 0.122201174
000160 fb cf 3f 3e 94 d3 26 3e fe f0 6c 3e 33 b3 38 3e
       0.18731682 0.16291648 0.23138806 0.18037109
000170 a5 25 62 3e 4d ad 34 3e 4d 9b 1b 3e 5c 4f 75 3e
       0.22084673 0.17644234 0.15195961 0.23956054
000180 4b 1f 82 3e 0d 85 58 3e 62 b1 84 3e 6f 67 98 3d
       0.254145 0.21144505 0.25916582 0.074416034
000190 4f 22 ec 3d 52 1a 3d 3e 6f 3e 86 3e a5 14 73 3e
       0.11529981 0.18467072 0.26219508 0.23738344
0001a0 68 63 8a 3e 2f 7e a4 3e ce 29 5d 3e 18 39 a1 3e
       0.27028966 0.3212752 0.21597978 0.31488872
0001b0 9d 92 03 3e 68 c4 2c 3e c9 b6 27 3e 5d f8 64 3e
       0.12848897 0.16871798 0.16378321 0.22360368
0001c0 ee c5 47 3e 57 c6 71 3e 8e ea 74 3e 31 2d 25 3e
       0.19509098 0.23610817 0.239176 0.1613052
0001d0 35 9e 49 3e 32 df 3e 3e fb 95 7a 3e ed 09 36 3e
       0.19689257 0.1863983 0.24471276 0.17777224
0001e0 ed dc 44 3e d0 0d 80 3d 19 e2 57 3e e3 27 6f 3e
       0.19224901 0.062526345 0.21082343 0.2335506
0001f0 ce c8 72 3e 73 6e 84 3e 59 49 6a 3e dc 6f 6d 3e
       0.23709413 0.25865516 0.22879542 0.23187202
000200 55 bd 13 3e 32 93 6f 3e 44 f2 08 3e df cc c8 3d
       0.14427693 0.23395994 0.13373667 0.09804701
000210 46 6d 93 3e e2 82 39 3e fe f6 3c 3e 3e c4 f7 3d
       0.28794307 0.18116334 0.18453595 0.12097977
000220 82 ca 9d 3e 0a e5 10 3e 2f 4d 5b 3e 91 7d 64 3e
       0.30818564 0.14149871 0.21416162 0.22313525
000230 2a 68 85 3e 3c e0 90 3e a9 9c d4 3d 41 ac 06 3e
       0.26056033 0.28296077 0.10381443 0.13151647
000240 c6 81 7a 3e 05 4e 8f 3e bf bd 19 3e fa 9f 94 3e
       0.24463567 0.27989212 0.15013789 0.29028302
000250 cd 0c 73 3e b9 00 75 3e df 8a 5d 3e 2b 8d 87 3e
       0.23735352 0.23926057 0.21635006 0.2647489
000260 ec 08 4c 3e d7 ac 40 3e 5d 36 48 3e 2b fa 34 3e
       0.19925278 0.18815933 0.19551988 0.17673557
000270 3f fd 7f 3e 7e 8a 75 3e 44 69 42 3e 48 fb c7 3d
       0.2499895 0.23978612 0.18985468 0.09764725

encoder.2.weight f4 [140, 160]
000000 37 ff 90 bc 02 3a 48 3c ee 9a a9 bc d0 5a f2 bd
       -0.01769982 0.012220861 -0.020703759 -0.11833727
000010 96 07 00 be db 0c c6 bc ac 10 9f b8 0c d9 89 3d
       -0.12502894 -0.024176052 -7.584816e-05 0.067308515
000020 59 59 c4 3d 60 05 fe 3d f0 75 b5 bd 27 21 86 bc
       0.09587354 0.12403369 -0.088603854 -0.01637323
000030 29 eb fe bb 37 2a a7 3d 72 59 ff 3d 81 f5 7b 3c
       -0.007779498 0.08162349 0.12468232 0.015378357
000040 c7 40 fe 3d 71 61 ad bd b4 55 93 bd 5d d2 c0 bc
       0.12414699 -0.08465851 -0.07194081 -0.023537809
000050 7a 5e 0c bc 2b f8 dd bb dd 10 11 3d fa 48 e5 bd
       -0.008567447 -0.0067739687 0.035416473 -0.1119556
000060 46 c1 57 bd c8 5e 75 3d 01 85 50 3d 69 04 0d bd
       -0.052674554 0.059904844 0.050908092 -0.034428034
000070 57 2e 97 3d ac 4e 68 3d f3 d9 09 bd e1 b5 49 3d
       0.073818855 0.056715652 -0.03365512 0.04924572
000080 0c a4 f7 3d 56 70 89 bd af f6 17 3e f6 7b 9a 3d
       0.12091836 -0.067108795 0.14840196 0.07543175
000090 56 98 83 3c b9 1f ea 3d 68 b5 aa 3d 76 01 64 3d
       0.01606385 0.11431832 0.08335382 0.055665456
0000a0 84 45 f9 bc eb be 87 3d 01 a6 bf 3d e7 ee b1 3d
       -0.030428655 0.066282116 0.093578346 0.08688145
0000b0 83 77 3f 3e fa 6b f2 bd c8 f9 84 bd e3 75 28 bd
       0.18697934 -0.11837001 -0.064929545 -0.04112805
0000c0 95 8d 16 3e 7b 8c 69 3d a2 d3 56 3d 00 f3 bb 3d
       0.14702447 0.05701874 0.052447923 0.09177208
0000d0 82 47 71 bd 1a aa 8b 3d b3 ce 4e 3d 85 70 bc bd
       -0.058906086 0.06819554 0.050490092 -0.09201149
0000e0 2b 61 54 3d 49 71 05 bc 5a 67 8d 3b 3c 2c 83 3d
       0.05185048 -0.008144685 0.004315299 0.064049214
0000f0 fb 13 bd bc c1 ef a0 bc 60 19 91 3d ac 01 ea bc
       -0.023080816 -0.019645574 0.07084918 -0.02856525
000100 68 fe b5 bb b5 ed bb bd 5f 3c 20 3d 7e 9d b9 bd
       -0.005554009 -0.091761984 0.039120074 -0.090632424
000110 7d d9 ce 3c 3d f8 bf 3d 03 41 dc 3c f5 a7 8e bd
       0.02525019 0.093735196 0.026886469 -0.06965629
000120 4e f5 a3 bd a9 26 94 bc 45 b0 dc 3c 36 7c 1b 3d
       -0.080057725 -0.01808484 0.02693952 0.037960254
000130 77 6d c6 bd 4b b9 63 bd 9f 74 98 3d 59 96 58 3d
       -0.096888475 -0.05559663 0.07444119 0.052877758
000140 a3 b7 21 bc 0a 90 f4 bc 13 f2 1d bc 5d c1 24 3d
       -0.009870443 -0.02985384 -0.0096402345 0.040223468
000150 02 d4 ce 3d 26 7a bd 3c 24 e1 8f 3d ae 53 7d 3d
       0.10099031 0.023129534 0.07025364 0.06184738
000160 f7 29 21 3d 92 0a 0a bd b0 25 4a bc bc 64 5e 3d
       0.03934666 -0.033701487 -0.012338087 0.054295287
000170 3b f0 04 3d 21 45 85 3d 12 ba 85 3d 50 03 95 3d
       0.032455664 0.06507326 0.06529631 0.072760224
000180 06 a7 d4 3c 0e 6c 56 bd 92 4e da 3c b0 87 f0 bd
       0.02595855 -0.052349143 0.026648793 -0.1174463
000190 c9 25 f8 3c d4 92 b8 3d c9 09 08 3d 5a 7f 08 bd
       0.030291455 0.0901238 0.033212457 -0.033324577
0001a0 f9 96 8b bd 97 cd 14 3e 75 8d fe bc 86 90 14 3e
       -0.06815905 0.14531551 -0.031073311 0.14508256
0001b0 69 97 c0 3d 72 75 00 ba 05 5e 07 bc 13 b0 c7 3d
       0.09403879 -0.0004900313 -0.008262162 0.0975038
0001c0 3d a0 17 bd bc 27 28 3d ea 9f 95 3c 25 ea b1 bc
       -0.03701805 0.04105352 0.01826473 -0.021718094
0001d0 92 b3 ed 3b 2e 02 67 3d c5 5c 9a 3c 0d 36 87 3c
       0.0072540725 0.056398563 0.018843064 0.016505266
0001e0 9b 91 e9 3d 30 32 8f bc ca 08 b5 3d d7 74 c6 3d
       0.11404725 -0.017479986 0.08839567 0.09690254
0001f0 32 18 c4 3d 01 5d 63 3c 6f a8 2b 3d 76 4e 11 be
       0.095749274 0.013877154 0.041908678 -0.14190087
000200 12 3f d9 3d 4a 59 52 3c e5 15 50 3d 64 ee 74 bd
       0.10607733 0.012838671 0.05080213 -0.05979766
000210 a4 10 21 bd e1 cb 54 3c 13 07 99 b9 19 3f 70 bd
       -0.03932251 0.012988062 -0.00029187705 -0.058653925
000220 e6 4b ea bb bb 3f b8 3d 98 e1 d6 bd 6e 93 76 3d
       -0.007150161 0.089965306 -0.10492247 0.060199194
000230 1e a7 bf bc 01 dc ba bd 4c eb 37 bc 02 15 79 bb
       -0.023395117 -0.09123994 -0.011225533 -0.0038006906
000240 da c7 ce bc 0d 8d ad bd 3a dc e9 3c 97 97 c0 3d
       -0.025241781 -0.08474169 0.028547395 0.094039135
000250 51 e0 61 3c 92 3f 83 3d 6a fe f4 3d b9 40 00 3d
       0.013786391 0.064086094 0.11962588 0.031311724
000260 02 bc 07 3e 09 e4 28 bc 26 17 da bd 7e c9 1f bd
       0.13255313 -0.010308274 -0.106489465 -0.039010517
000270 9a c4 fd 3c 09 78 6a 3d cb fd 63 bd 25 c0 3d bd
       0.030977536 0.05724338 -0.055661958 -0.04632582
000280 07 b2 f7 3c ee 56 e6 3d 1c 02 00 3e 06 8a 09 bd
       0.030236257 0.11247049 0.12500805 -0.033578895
000290 63 1f 97 bc 29 98 ae bd c7 52 a1 3d c5 a4 b3 bb
       -0.018447584 -0.08525116 0.07877117 -0.0054822885
0002a0 4a cd 86 39 b1 4b 7f 3d 8b e4 3c 3d f9 47 11 3c
       0.00025711424 0.062328044 0.046116393 0.008867257
0002b0 56 52 f8 3c 04 e2 35 3d e6 70 47 3d 06 d2 d5 bd
       0.030312698 0.044405 0.048691653 -0.104404494
0002c0 4a 19 31 3d e2 4b 3d 3d de 98 84 bd 05 b4 47 bd
       0.04323701 0.046214946 -0.064744696 -0.048755664
0002d0 a1 29 88 3d a1 80 18 3d 8c b8 08 bd 7f 98 9a bd
       0.06648565 0.037232045 -0.033379123 -0.075486176
0002e0 4f 27 07 3e 71 a7 91 3d c6 4b dd bd d1 2f 01 3e
       0.13198589 0.07112015 -0.10805468 0.12615897
0002f0 fd b1 c0 3d e2 7d 4e bc 1c be 47 bd b5 9f 0f bd
       0.094089486 -0.012603255 -0.048765287 -0.035064418
000300 da 77 cd 3d de d5 f9 bc ea 65 95 3c e5 e2 8e bd
       0.100326255 -0.030497488 0.018237073 -0.069768704
000310 ce c3 b0 bc 08 7c 86 3d 8d 49 84 3d 3e f7 7a 3c
       -0.021577742 0.06566626 0.06459341 0.015317736
000320 aa a3 79 3d 14 f0 8c bd 1c af e1 3d ba f1 81 bd
       0.060947098 -0.06881729 0.110197276 -0.06344934
000330 e0 cc ec 3d 59 58 79 3c 1a a6 0e 3c 47 9b e5 bc
       0.11562514 0.015218818 0.008706594 -0.028028144
000340 a6 42 0f 3d 82 3f d2 bd bd ac 99 3c ed 45 61 bd
       0.03497567 -0.102660194 0.018759126 -0.054998327
000350 c2 16 f9 3c f5 90 9a bb e4 48 94 bd 68 65 36 bd
       0.03040636 -0.0047169873 -0.07240465 -0.044530302
000360 21 2b 3f 3c 02 06 e9 bd 50 a5 f7 3d a2 fb 0f bd
       0.011667998 -0.11378099 0.12092078 -0.035152085
000370 ad e8 f0 3c 1d fb 45 bd 80 f3 17 3d 16 5d 5b bd
       0.029407823 -0.048335183 0.037097454 -0.05355557
000380 69 06 4e 3c d6 95 bd 3d 38 02 85 3d 77 ca b3 3d
       0.0125747705 0.092570946 0.06494564 0.087788515
000390 e3 2e 83 3b 56 82 1d bd c3 6b 25 3b 62 be c0 3d
       0.004003392 -0.038454376 0.0025241233 0.09411313
0003a0 b4 94 be bd 53 9a b0 bd aa d5 1d 3d 02 d6 a7 3d
       -0.093057066 -0.08623185 0.038533844 0.081951156
0003b0 44 74 4c 3d 37 79 d1 3d db 2a b8 bd fd 8e 26 3d
       0.049915567 0.10228198 -0.08992549 0.040663708
0003c0 3b 36 80 3d 24 6e be 3d 6f 74 87 3d 4e ea 23 3e
       0.06260344 0.092983514 0.06614005 0.16007349
0003d0 0e ab 26 3d f9 25 ab bd 36 a7 16 3d 51 be 6d 3d
       0.040690474 -0.08356852 0.03678056 0.058042828
0003e0 ec 92 28 bd a0 ea 27 3d 6a 9d ae bc 81 2a 9f bd
       -0.04115574 0.04099524 -0.021315295 -0.07771779
0003f0 98 b7 62 3d 2c 56 f0 bc de e8 b0 3d be 19 75 bd
       0.05535087 -0.029337965 0.08638166 -0.059839003

encoder.2.bias f4 [140]
000000 7f 64 6f 3c 0c d9 22 bd da 3d 82 3d 3d 02 ca 3d
       0.0146113625 -0.039757773 0.063594535 0.09863708
000010 e2 1d 05 3d e1 87 bc 3d 5e d7 bc 3d 8e 6b e0 3d
       0.0324992 0.09205604 0.092207655 0.109580144
000020 28 69 0a bd 24 75 22 3c b7 40 2d 3d ac a0 a6 3d
       -0.03379169 0.009915624 0.042298045 0.081361145
000030 42 45 5f bd 9c 52 1d 3d 88 9f 33 3d 6e bb 8e bd
       -0.05450941 0.03840886 0.043853313 -0.06969343
000040 2e 33 af bc 93 7e 98 3d bf c4 6f 3d b9 6c 4f bc
       -0.021386709 0.07446017 0.05853724 -0.012660199
000050 39 02 ed bc 02 c9 cd 3d 78 64 56 bb 95 f2 3e 3d
       -0.028931724 0.10048105 -0.0032713693 0.046618063
000060 12 62 bb 3d e8 5c ac 3d df 62 c9 3c b4 86 96 3d
       0.09149565 0.08416158 0.024583278 0.07349911
000070 87 bb 79 3d 41 e1 44 bd da 99 81 3c 19 60 c5 bc
       0.060969856 -0.04806638 0.015820432 -0.024093674
000080 27 3c a9 3c 6d 20 20 3c b1 7b d8 bc ed ef d8 3d
       0.020658566 0.009773356 -0.026426168 0.10592637
000090 21 4c 01 bd ab 16 c4 3d 7f 83 ad 3d 6a ab 98 bc
       -0.031566743 0.09574636 0.084723465 -0.018636424
0000a0 ca c2 b9 3d 60 01 98 3d ac 25 f6 3c f3 c3 22 3d
       0.09070356 0.07422137 0.03004726 0.039737653
0000b0 ba 36 9f 3d 27 b3 46 3d 6d c9 26 3d f4 26 fe 3c
       0.0777411 0.048510697 0.04071944 0.031024434
0000c0 98 5c 58 bd e2 2d 49 3d 38 3d 39 bd 97 0f 9c 3c
       -0.05282268 0.049116023 -0.0452244 0.019050403
0000d0 a0 75 0d 3d dc 87 68 3d 43 23 a9 3c 8d 7c 8d 3b
       0.034536004 0.05677019 0.020646697 0.004317826
0000e0 0a d3 b2 3d 09 68 cd 3d de 3b b9 3d 9f b4 da 3c
       0.08731659 0.10029609 0.09044622 0.026697455
0000f0 c7 97 f1 3d 22 91 bb 3c 9c fa 98 bc 36 f8 ba bb
       0.11796527 0.022896353 -0.018674187 -0.0057058586
000100 bb c1 85 bc df 31 93 3d eb 64 f0 3d b0 9d 4f bd
       -0.01632773 0.071872465 0.117379986 -0.050687492
000110 a7 34 b8 3d 78 9f 53 3d 12 9c 48 3d 83 37 4d 3c
       0.08994418 0.051665753 0.048976965 0.012525442
000120 63 18 e1 3c f0 b0 17 bd c8 bb 1f bd 6e 12 6b 3d
       0.027477449 -0.037033975 -0.03899744 0.057390623
000130 f8 f9 0b bd cc a6 39 3d a1 39 c1 3d 59 4b 5a 3d
       -0.034173936 0.045325086 0.0943482 0.053294513
000140 46 c4 11 3d f6 38 24 3d 6f e9 c4 3c f9 e6 d1 3d
       0.03558757 0.040093385 0.024037091 0.10249133
000150 f6 6a b4 3d a5 b0 99 3d 5c c9 88 3d 1a 37 fc 3b
       0.08809464 0.075043954 0.06679031 0.0076969983
000160 2d 58 e2 3c d7 92 ce 3b aa e3 91 bc 23 1b b8 3d
       0.027629936 0.006304126 -0.017808754 0.08989551
000170 2a 32 ad bc 92 c2 34 3c cb 5e cc 3b 32 97 99 3d
       -0.021142084 0.011032717 0.006236886 0.07499541
000180 fa b6 16 bd 4e b5 4b 3d a6 04 52 3d 9e 55 5e 3d
       -0.036795594 0.049733452 0.051273964 0.05428087
000190 b7 d5 15 bd 3a 24 0f bd 9f 7c 83 3d 89 a9 be 3d
       -0.036580767 -0.034946658 0.06420254 0.0930968
0001a0 a3 b1 c3 3d 7d 32 7d 3d 8d 6f 67 bc 54 d7 74 3d
       0.09555366 0.061815728 -0.014125717 0.059775665
0001b0 bb b6 f3 3c 44 f5 e4 3d 17 37 23 3c c4 cd 43 3c
       0.029750219 0.11179593 0.009961865 0.011950914
0001c0 cb 96 28 bc f6 70 8a bc 47 a8 d7 3d cd 62 8a 3d
       -0.010289858 -0.016899567 0.10530143 0.06757126
0001d0 88 b3 dd 3d 85 80 88 3d 8f b4 8a 3c 22 c2 28 bd
       0.108252585 0.06665138 0.0169318 -0.041200764
0001e0 7e 21 d6 3d be c4 08 bd 59 9f 52 bd 5e 3b a5 bc
       0.10455607 -0.033390753 -0.051421497 -0.02016991
0001f0 4f db 89 3c fa 21 5d 3b 8b a2 38 bd 12 c3 91 3d
       0.016828207 0.0033742175 -0.045076888 0.07117285
000200 63 9d 83 bb 8d b0 5c 3d 45 96 1e bd 11 a6 a1 3d
       -0.0040165647 0.05387931 -0.038717527 0.07893003
000210 33 18 67 bd 69 df be 3d c4 c3 bc bc dd bf a6 3c
       -0.056419563 0.09319956 -0.023042567 0.02035516
000220 81 8d 42 bd 86 54 00 3d 79 fc 34 bb b2 5f f1 bc
       -0.04749823 0.031330608 -0.0027616306 -0.029464576

encoder.4.weight f4 [120, 140]
000000 e4 8b 01 3e 34 1a 4c 3d ec ce 40 bc f2 e4 9d 3d
       0.1265102 0.049829677 -0.011768084 0.077096835
000010 c7 02 13 bd d9 3a 91 3d 29 1e 4b 3c 2c 82 90 3d
       -0.03589132 0.070913024 0.012397327 0.07056078
000020 2c e2 b7 bd 41 67 66 bd 47 8a 29 bd d2 63 bd ba
       -0.08978686 -0.056250814 -0.041391637 -0.0014449304
000030 68 90 87 bd 72 5c 93 bc b9 d7 2b 3d c4 9d 4a bd
       -0.0661934 -0.017988417 0.041953776 -0.049466863
000040 ca 1f 99 bd 64 9d d0 3b 20 15 2c 3d cf e0 8e bd
       -0.074767664 0.0063664187 0.042012334 -0.069764726
000050 b9 0b f7 bc 76 6d 6f 3b 47 8b 11 3d f6 25 d8 bd
       -0.030156957 0.003653375 0.035533216 -0.105541155
000060 6a a2 f1 3d de 33 34 bd 19 bc 8b bd 53 e8 9d bc
       0.11798556 -0.043994777 -0.06822986 -0.01927582
000070 93 5c 98 3b 8b 3c a5 3d 2b 84 27 bc 22 67 00 3e
       0.0046497076 0.08068188 -0.010224382 0.12539342
000080 7e 68 32 bd 91 b4 e4 bc 62 a6 68 bd 51 ad 39 3d
       -0.043556683 -0.027918132 -0.0567993 0.045331303
000090 9b a4 13 bc 44 12 1e 3d 93 d2 6f 3d d0 10 dc 3c
       -0.009011413 0.03859164 0.05855043 0.026863486
0000a0 61 f2 aa 3d f5 8c 45 bd bc 72 4e bb a5 b2 f2 3d
       0.08347011 -0.04823013 -0.0031501492 0.1185048
0000b0 13 da cb 3d 9f aa ff 3c e6 a5 8b bd 4f d5 b6 3c
       0.09953704 0.031209288 -0.06818752 0.02231851
0000c0 ae b6 e3 3b 30 fa e3 3d ca 10 bf 3c e2 95 a0 3d
       0.0069492674 0.11131704 0.023323435 0.07841088
0000d0 02 ec cb bc 33 f1 61 bd 9c c1 43 3d ec a8 c0 3c
       -0.02489281 -0.055161666 0.047792062 0.023518048
0000e0 f9 97 a0 bd da 06 70 bd 8b 7c c4 3d 0e 3d 8d 3d
       -0.078414865 -0.058600284 0.09594067 0.06896411
0000f0 82 98 e3 bc 38 fe 8f 3d d6 72 36 3d 81 70 03 3d
       -0.027782682 0.0703091 0.04454311 0.032089714
000100 b3 cf b5 3d 45 be a7 3c 6c 13 b6 3d 74 46 87 3d
       0.08877506 0.02047647 0.08890423 0.06605235
000110 fc 5e b0 3d 02 d9 06 be f6 4d ea 3d 11 56 59 3d
       0.08611867 -0.1316872 0.11440651 0.053060595
000120 7b 38 18 bd 27 7d 4d 3b 5d 2a 3c 3c ba 6c d0 bc
       -0.03716324 0.0031355114 0.01148471 -0.02544247
000130 b7 3f d7 ba 40 1a 9f bd a3 3a bd 3d f3 79 c0 bb
       -0.0016422187 -0.07768679 0.092397 -0.0058739125
000140 7d d0 7f 3d 7b 84 48 bd 62 34 57 bd a8 97 8e bc
       0.06245469 -0.04895447 -0.05254019 -0.0174063
000150 9e 17 9b bd 07 66 a5 3d a0 71 81 bd b2 f2 3e 3c
       -0.07572864 0.08076101 -0.063205004 0.011654543
000160 59 dd 62 bd e7 6a 3d bd 27 ee 68 3a ca cc bd bd
       -0.055386875 -0.04624453 0.0008885585 -0.09267576
000170 46 43 51 3d 4a da e2 bd ac eb 6f bd 36 e3 c1 3c
       0.051089548 -0.110767916 -0.058574364 0.023667913
000180 5a 97 af 3b 2b cb 16 bd fd 64 fc 3b 2e d8 b1 3c
       0.0053586187 -0.03681485 0.0077024684 0.021709528
000190 67 3a 1a 3c ec 4f d2 ba e8 b5 e4 3c 90 81 40 bb
       0.009413338 -0.0016045547 0.02791877 -0.00293741
0001a0 7f 92 0e bd 74 3f 96 bb 89 b7 b2 3c 6c 07 a3 bd
       -0.03480768 -0.004585201 0.021816032 -0.079604
0001b0 9c bb 05 bb 84 53 21 bd 6a fc a6 bc fc 61 89 bd
       -0.0020406013 -0.039386287 -0.020384032 -0.06708142
0001c0 ba 92 90 3d f1 bf ad bd 02 a3 63 bc 6e 2c 7a 3c
       0.07059236 -0.084838755 -0.013893845 0.015269382
0001d0 7c b2 98 3d 68 2c 87 3d 76 7e d6 3c 55 69 b2 bd
       0.07455918 0.06600267 0.026183348 -0.08711497
0001e0 05 00 7b 3d e8 64 cf 3d 6a 36 5f 3d d8 3b 87 bd
       0.061279316 0.10126668 0.054495253 -0.06603211
0001f0 f3 7b 15 bd 4b cf 3d bd 54 a3 6d 38 d1 9f 77 3d
       -0.03649516 -0.046340268 5.6657314e-05 0.060455147
000200 d9 5d 70 bd 40 9c 0c 3c d7 f9 fd 3d f0 47 be 3d
       -0.05868325 0.008582175 0.12401169 0.09291065
000210 fd 3d e8 bd 36 e9 86 bd 94 57 86 3d ba 2f 90 bb
       -0.11339948 -0.0658745 0.06559673 -0.0044002207
000220 2b 79 20 bd d5 05 ae 3d 6f fc 50 bb c8 ac ae 3d
       -0.039178055 0.08497206 -0.0031888743 0.08529049
000230 a7 f0 95 bd 9c 95 e1 bc 05 49 9c bd 7d ca af 3c
       -0.073212914 -0.02753716 -0.07631115 0.021458859
000240 80 d7 13 3e 2b d9 81 3c 21 59 e7 bc 9a 92 a9 bd
       0.14437675 0.015850624 -0.028240742 -0.08279915
000250 b7 ac 9c bd c8 85 a3 3d fc d5 31 bc d4 b8 6f 3d
       -0.0765013 0.07984501 -0.0108542405 0.058525875
000260 78 22 9f 3c 13 a6 a8 bd 88 39 4c 3d bf 77 96 bd
       0.019425616 -0.08234801 0.049859554 -0.073470585
000270 94 0e e5 3d 0b 06 63 bd ad 33 42 3d a1 c6 ba bc
       0.11184421 -0.055425685 0.047412563 -0.022799792
000280 89 48 0b 3c 6f ee 13 bd 8b 35 b2 bb f4 be e0 3d
       0.00850118 -0.03611606 -0.0054385117 0.109739214
000290 e1 5e 03 bd 3e 65 03 bd 7f b2 8c bd f5 e0 8d 3c
       -0.032072905 -0.032078974 -0.06869983 0.017319182
0002a0 16 b2 cd 3c e0 6b f8 3d 91 35 9a 3c 6b 3f 41 3d
       0.025109332 0.121299505 0.01882437 0.04717962
0002b0 b6 db 6a bc 84 1c dc 3d c3 96 4d bb 38 30 b9 3c
       -0.01433461 0.107476264 -0.0031370379 0.022606
0002c0 3a 89 f8 3d de 5e 47 bd ee 3b 8a bd f2 9a f5 3d
       0.12135549 -0.048674457 -0.06749712 0.11992444
0002d0 34 08 d8 3d 12 91 41 3d 70 b0 17 bc b7 0d 9d 3d
       0.105484396 0.04725749 -0.009258375 0.076686315
0002e0 a0 39 57 bd 2e 8d af bc a6 86 bb 3d 0c 82 ac 3c
       -0.05254519 -0.021429624 0.091565415 0.021058105
0002f0 37 a4 ab 3d 0d 5e 87 bd 6c 62 3e bd 7d eb 06 3d
       0.08380931 -0.06609736 -0.04648058 0.032939423
000300 11 99 91 3d 3f 11 0b bd b9 06 d8 bc 0d 51 d7 3d
       0.07109273 -0.033951994 -0.026370393 0.10513506
000310 2b 24 5b bd d7 57 62 bc be ae 25 bd aa 8a 02 bd
       -0.05350129 -0.013814888 -0.04044985 -0.03187052
000320 74 3b d0 bd 1e d3 35 bc 41 d0 75 3d 71 54 06 bd
       -0.1016759 -0.011097698 0.06001306 -0.032795373
000330 73 1f 81 3d ed 65 26 3d 0d 4f 1e 3d 50 2c ef bd
       0.063048266 0.040624548 0.038649607 -0.11678374
000340 d5 0b 38 bc 77 22 90 bc c7 18 b0 3d 8a 71 e5 3c
       -0.01123329 -0.01759456 0.08598476 0.028008241
000350 66 6d a9 3d d3 a6 3a 3c c2 4b 5a 3d 81 18 f7 bd
       0.08272819 0.011392313 0.053294905 -0.120652206
000360 c3 92 bd 3d 3d 1c e0 3c 53 02 83 3c e9 6a 98 3d
       0.09256508 0.027357215 0.01599232 0.074422665
000370 1e 4c 75 bd 87 e8 51 bd d3 5d 2d 3d 4f 1c 98 bd
       -0.059887044 -0.051247146 0.042325806 -0.074272744
000380 58 e0 e0 bd 22 86 d2 3d aa 03 b9 bd 35 b4 3e 3d
       -0.1098029 0.1027949 -0.09033902 0.046558578
000390 9f 2b 2e 3d cc 7b a3 bd c8 99 bb 3d 9b 70 93 bd
       0.04252207 -0.07982597 0.09160191 -0.07199212
0003a0 89 35 a4 3d dc c9 d2 3d 3c a1 92 3c 9f a2 98 3d
       0.080180235 0.10292408 0.017899148 0.074528925
0003b0 19 05 ae bb 32 a7 0c 3e 8b 53 9d 3d de ac d8 bd
       -0.0053106663 0.13735655 0.0768195 -0.10579847
0003c0 fd a4 33 bd 96 6d 7f bd 14 9e 20 bd 1f 0b ee 3d
       -0.043858517 -0.06236037 -0.039213255 0.11623215
0003d0 ba a8 1a bd ee bf 1a bd c1 57 84 3d 23 27 1c 3d
       -0.037758566 -0.037780695 0.0646205 0.03812326
0003e0 84 93 5b bd ee 1f ed ba ea 21 b5 bd 07 ff ad bd
       -0.05360748 -0.0018091181 -0.08844359 -0.08495908
0003f0 99 8a 10 3e 7a cf 2f 3d 84 b5 48 3d 10 cb db 3c
       0.14115371 0.042922474 0.04900123 0.026830226

encoder.4.bias f4 [120]
000000 bc 53 16 bc b2 0a 7f 3d ca 45 2d 3d f1 3a 28 3d
       -0.009175237 0.06226606 0.042302884 0.041071836
000010 9d ec a8 3d 61 cf 0e bd d1 f2 9c bd ba fc e6 bc
       0.082482554 -0.03486574 -0.07663501 -0.028196681
000020 be a7 a0 bb e1 cf 0c 3d 32 4b b0 3b 6d 38 86 3d
       -0.004902809 0.034377936 0.0053800577 0.06553731
000030 30 08 71 bc 67 f4 1e 3b 2a 14 63 3d 61 63 38 bd
       -0.014711425 0.0024254562 0.05543915 -0.04501665
000040 23 8d 28 3c 4f 89 bd 3d 34 09 68 3c 0b e0 b3 3d
       0.010287556 0.09254705 0.01416235 0.08782967
000050 09 3b 02 3d 2a ae 81 3d 0c a7 9b 3d 8e 61 57 3d
       0.03179458 0.06332047 0.07600221 0.05258327
000060 a2 70 35 bd 25 43 c6 3d 64 07 c8 bb 68 59 f2 bc
       -0.04429687 0.096807756 -0.0061043967 -0.029583648
000070 90 09 05 3d 2b db 10 3d a1 cb 02 bc 22 f9 0a 3c
       0.032479823 0.035365265 -0.007983119 0.008482249
000080 b3 79 c4 3c 4f d0 8e 3d 03 a5 48 3d 86 dd 1c 3b
       0.023983812 0.069733255 0.048985492 0.002393575
000090 58 f9 01 bd 97 ae 04 bb 2a 77 76 3d 14 32 ac bd
       -0.031731933 -0.0020245665 0.060172237 -0.08407989
0000a0 73 ed 68 3d af de 86 3d 90 12 4f 3c f9 11 15 3d
       0.056867074 0.06585442 0.012638703 0.036394093
0000b0 a9 12 8e 3d 6f 85 63 bc 97 b0 98 3d 9c ed 5a bd
       0.06937153 -0.0138867935 0.07455557 -0.05344926
0000c0 a4 24 98 bc ca e6 98 bd 22 64 8f 3d a9 59 9f 3d
       -0.01857216 -0.074658945 0.07001521 0.07780773
0000d0 e4 4f ac 3c 47 fc 1c bd 9d 50 c8 3d 29 d0 70 3c
       0.021034189 -0.038326528 0.09781001 0.014698067
0000e0 0c 59 96 3c 42 a6 60 ba f4 af 9b bc 57 01 2f 3d
       0.018353008 -0.0008569696 -0.0190048 0.042725887
0000f0 ca 4e 84 3d 20 00 ac 3c de fd b9 bc 67 76 d4 3d
       0.0646034 0.020996153 -0.022704061 0.10374146
000100 07 4e 7a 3c 04 bf 3b bd ff 48 65 3d 81 01 45 3d
       0.015277392 -0.045836464 0.055977818 0.048097137
000110 16 a3 53 3d e2 1c fd 3b 0e 63 f5 3b 24 5b b8 3d
       0.051669203 0.0077243904 0.007488615 0.09001759
000120 ee 69 07 3d 1d 16 ba 3d ff 2e 8c bd b1 d6 3d 3d
       0.033060007 0.09086249 -0.06844901 0.046347324
000130 40 3d 8b bd 44 23 39 bd 36 44 13 bc 29 5a 2e bd
       -0.06798792 -0.045199648 -0.008988431 -0.042566452
000140 4f 7d af bc 0d ed f7 3b 0e 15 88 3d bc 5d 66 bd
       -0.021422056 0.0075661005 0.06644641 -0.056241736
000150 b1 6b 16 3c 2d 83 b1 3c ae 26 bc 3c 1a a5 d5 3d
       0.009180949 0.021668995 0.022967663 0.10431881
000160 e1 84 d4 3b ac e0 5c bd 90 c1 a3 3d a1 03 a4 bc
       0.006485567 -0.0539252 0.079959035 -0.020021262
000170 08 70 ae bd 23 7e 87 bd e2 7d 22 bd e3 c0 1a 3c
       -0.08517462 -0.066158555 -0.039670832 0.009445402
000180 ff c2 c2 3d 7d d4 5c bd 08 a2 72 bd f8 b1 92 3c
       0.09509849 -0.053913582 -0.059236556 0.017907128
000190 2f 96 9a bd c2 e6 b8 3c 82 35 61 bd 1c b6 c3 3d
       -0.075481765 0.022570971 -0.05498267 0.09556219
0001a0 85 ed e7 3c cf ff 89 3c 82 bf 9c bd 44 c2 a1 3a
       0.0283115 0.016845612 -0.07653715 0.0012341221
0001b0 16 b4 9e ba 9a 78 72 bd 90 82 b7 3d f4 50 49 3d
       -0.0012108113 -0.059197046 0.0896045 0.04914947
0001c0 5f 68 87 3d 21 1f d3 3d 3a 15 a5 3d c9 85 ad bc
       0.06611704 0.10308672 0.08060689 -0.021181958
0001d0 b1 22 9d bc ee 4b 87 3d a2 e9 71 3d 58 4d 8f 3d
       -0.019181581 0.06606279 0.0590607 0.06997174

decoder.0.weight f4 [140, 120]
000000 bd cb b3 3d 0a 5a 85 3d 8b 11 6b 3c 06 b2 97 bc
       0.08779094 0.06511314 0.014347444 -0.018517505
000010 e1 99 74 bd cd 3b 80 ba af 01 94 3d 99 71 37 bd
       -0.059717063 -0.0009783447 0.072268836 -0.04478607
000020 ec 3b fb 3c b1 45 a4 bd 62 76 34 be 01 59 8d bd
       0.030668221 -0.08021105 -0.17623284 -0.06901742
000030 2a fa 21 ba 61 f5 2f bd 70 f4 22 be 74 9a b9 bd
       -0.000617894 -0.04295862 -0.15913558 -0.09062663
000040 e8 c1 a5 bd 3b 6e 85 bd 67 ea 1d bd b6 1f f5 bb
       -0.08093625 -0.065151654 -0.03855362 -0.007480587
000050 c0 db 9a bd a6 ff ed 3c 84 34 5f bd ac fd ba 3d
       -0.07561445 0.029052567 -0.054493442 0.09130415
000060 eb 47 c9 bc bd 4a d5 bd 3e c0 d3 bb 13 9b c4 3d
       -0.024570426 -0.10414646 -0.006462126 0.095998906
000070 c4 48 a2 3d bf 7d 20 3d 80 20 d4 3d 24 fb c9 3d
       0.07924035 0.03918242 0.103577614 0.098623544
000080 72 af 63 3c 57 43 aa bc 6a 5f 14 bd e5 3f 9b 3d
       0.01389681 -0.020784063 -0.036223806 0.07580546
000090 21 91 ae 3d 73 dc e8 3d 71 bd 97 3d 96 2c 87 3d
       0.08523775 0.11370172 0.0740918 0.06600301
0000a0 66 e1 31 3d 89 dd 22 ba 4c 2f 2c 3b 34 ac f2 3c
       0.043427847 -0.0006212821 0.0026273308 0.029623128
0000b0 31 6e 9c bd 1d 0c e6 3d ee fa e3 bc e1 ab 17 3d
       -0.07638205 0.11232779 -0.027829614 0.03702915
0000c0 00 fd 05 3d a0 46 98 bd df e5 36 3d 6b a1 f4 3d
       0.032711983 -0.07435346 0.044652816 0.119448505
0000d0 a5 fc 73 3c 11 ee 86 bd 62 2b ee bd f3 55 72 bd
       0.014891778 -0.06588376 -0.11629368 -0.059164
0000e0 0d 2d 94 bc e1 01 a7 bd 4b 5c 77 bc e0 de 77 3d
       -0.018087888 -0.08154655 -0.015097688 0.060515285
0000f0 7d ba d2 bc d9 4e 92 3d 9c ee 35 3d 02 ee 8e bd
       -0.02572369 0.07143945 0.04441701 -0.0697899
000100 be 2a aa 3d 14 30 91 3c cb 85 83 3c 93 3c 0d 3d
       0.08308934 0.01772312 0.016055008 0.034481596
000110 c4 4d 18 bd d6 12 b1 3d 45 27 da bc 5e 58 9c bd
       -0.037183538 0.08646171 -0.026630053 -0.07634042
000120 c0 ed 8d 3d 3a 70 ab bc 91 a7 b4 bb 6c 7e 80 3d
       0.06930113 -0.020927537 -0.0055131395 0.06274113
000130 d7 a3 92 3d bf d5 4c bd 36 bf f2 3d 0a 94 76 bc
       0.07160156 -0.05000853 0.11852877 -0.015049944
000140 4b b2 d5 3d 26 00 b7 3d 11 bc bf 3d 5a 19 ba 3c
       0.10434397 0.08935575 0.09362043 0.022717167
000150 49 2e c9 bd f8 56 81 3d a5 87 66 bd 3a b2 e5 3d
       -0.09823281 0.06315416 -0.056281704 0.11215635
000160 70 91 59 be b7 49 e3 bc b3 14 bf 3c 37 10 d5 bb
       -0.21246886 -0.02774511 0.0233253 -0.006502177
000170 20 71 cc 3c 99 dc 75 bd 9d 13 6c 3d ab 9c 03 bd
       0.024956286 -0.06002483 0.057635892 -0.032131832
000180 17 10 bf 3d 51 a2 12 3c 73 6c 7f 3c b9 f3 9f bd
       0.09329241 0.008949832 0.015589821 -0.07810158
000190 ee b5 ae bd b1 0b 49 bd 1c be 00 3e 61 14 4b 3d
       -0.08530794 -0.049083415 0.12572521 0.04957998
0001a0 a0 ef b2 3d e1 ba af bc f0 92 95 bd d9 d1 81 bd
       0.08737111 -0.021451415 -0.07303417 -0.063388534
0001b0 34 bd e6 bc af ba a9 3b 96 da 18 3d 24 43 d1 bc
       -0.028166391 0.005179725 0.037317835 -0.02554471
0001c0 8b 1c bc bd 61 44 6a bd 10 63 d8 3d dd 76 5a bd
       -0.09185132 -0.057194117 0.1056577 -0.053336013
0001d0 29 b8 7c bc c6 77 63 3d ba a2 dc bd 11 c9 6f bd
       -0.015424767 0.055534147 -0.10773225 -0.05854136
0001e0 e4 45 68 bd 2f b7 7c bd f9 12 e7 bc b2 ad e0 bd
       -0.056707278 -0.061698135 -0.028207289 -0.1097063
0001f0 c3 d0 34 bd 34 ae 73 bd b9 79 de 3b 5c b4 86 bd
       -0.044144403 -0.059492305 0.006789413 -0.065773696
000200 83 a9 6c bd d2 df a6 bd 19 67 03 3c 1e 7c bb bb
       -0.057778846 -0.08148159 0.008020186 -0.005721583
000210 1f 1e a2 bd 81 2b 15 bd 7e a6 b3 3d be ef b0 3d
       -0.079159014 -0.03641844 0.0877199 0.08639477
000220 97 61 69 bd 59 f0 aa 3c 5d d4 33 bd 77 82 91 3d
       -0.056977835 0.02086656 -0.043903697 0.07104962
000230 99 1b 63 3c 2b 90 4f bd 53 e9 ce 3d e3 c0 7b 3d
       0.01386156 -0.0506746 0.10103097 0.061463248
000240 3e 27 8e bc 7a 25 30 bd a2 c8 ef bb 5c da 20 3d
       -0.017352697 -0.04300449 -0.0073176185 0.039270744
000250 aa 04 8b 3d c6 21 24 3c e3 92 9f 3d 48 db 2f bd
       0.06787999 0.010017818 0.07791688 -0.042933732
000260 65 cc 4f be 01 a7 c4 bd d5 04 ac bd 9c 55 c3 3d
       -0.20292814 -0.09602166 -0.08399359 0.09537813
000270 fa 01 8f 3d 90 27 a9 bc 12 b2 05 3c a7 9d d3 3d
       0.06982799 -0.020648748 0.008160131 0.10332804
000280 52 27 d5 3c 6c bf 06 bc e0 be 8f 3d a3 fc 39 bd
       0.026019726 -0.0082243495 0.070188284 -0.04540695
000290 a1 b7 e8 39 26 2e 9e 3d 10 9f 30 3d 7b 16 bf bc
       0.00044387302 0.07723646 0.043120444 -0.02332615
0002a0 c8 92 5f bc 9b 3a 11 3d 1e bd de 3c 1f d0 3e 3c
       -0.013645835 0.03545628 0.027189787 0.0116463
0002b0 3c f3 4e bc c8 59 49 bd 61 74 d4 3d b4 ac 04 3e
       -0.012631234 -0.049157888 0.1037376 0.12956506
0002c0 b5 2d ee 3d 09 d3 ba 3d 8c 4a b2 bd ad d9 40 3d
       0.11629812 0.09122283 -0.08705625 0.04708259
0002d0 aa 54 ec bd cb f3 25 bd d6 71 94 bd 9f 60 a6 3d
       -0.11539586 -0.040515702 -0.07248275 0.08123898
0002e0 65 19 e3 3d c2 84 68 bc cb 7b 21 3b 9d db 1e bd
       0.11088828 -0.014191808 0.0024640437 -0.03878366
0002f0 96 b6 aa bd da f1 25 bc ea da cc 3d 8a c3 42 3d
       -0.08335607 -0.010128463 0.10002692 0.04754976
000300 ec ed 99 bc 8a cf 17 bd cd 52 39 3d a7 4d c2 3c
       -0.018790208 -0.03706316 0.04524498 0.023718668
000310 dc 10 24 bc a4 55 b2 3d 09 b1 e2 3d 07 8f c3 3c
       -0.010013785 0.08707741 0.11068923 0.023871912
000320 a5 b4 97 3d 52 a7 22 bd a2 c7 a5 3d fb 92 52 bc
       0.07407502 -0.03971035 0.080947176 -0.012852426
000330 f4 81 c8 bd bf 1d 04 bd 5c 5e a7 bb dc b6 c5 bb
       -0.097904116 -0.03225493 -0.005107684 -0.0060337614
000340 94 f5 a3 bc 04 9d 4f 3d 28 df e5 ba a7 9f 5d bd
       -0.020014562 0.05068685 -0.0017537819 -0.054107334
000350 93 2c a6 bd 53 9d 10 3b 7e a8 a5 3d aa f8 79 bd
       -0.081139706 0.0022066429 0.08088778 -0.06102816
000360 ed 66 b3 bd 8c a2 80 bd d0 0b 3c 3d f6 40 aa bd
       -0.08759866 -0.06281003 0.045909703 -0.083131716
000370 d3 95 7c 3c 8b a9 2b bd 9c 75 f7 bc f4 1c 8d bd
       0.01541658 -0.041909736 -0.030207448 -0.06890288
000380 15 5e e0 3d 3a 1a b5 3c e6 e3 03 3d f1 85 00 bd
       0.10955445 0.022107232 0.032199763 -0.031377736
000390 ed 8e 90 bd 93 25 92 bc 58 9c 1d 3d be 5f c4 bd
       -0.07058511 -0.017840182 0.03847918 -0.09588574
0003a0 3e 96 3c 3d 34 24 26 3d b7 dd 15 3c a0 d7 65 ba
       0.04604172 0.04056187 0.009147099 -0.00087677874
0003b0 49 1a d7 3d 5f d0 7a bc 0a d0 ac 3d 11 05 31 3d
       0.1050306 -0.015308469 0.08438118 0.043217722
0003c0 ac 7e 98 bd d3 49 4c 3d a4 3c 4d 3c 7c 78 d6 bc
       -0.07446036 0.04987509 0.012526665 -0.026180498
0003d0 c0 33 0c bc 2a 62 81 bd 90 d8 98 3b 06 41 ab bd
       -0.00855726 -0.063175514 0.004664488 -0.083620116
0003e0 9a 6d 75 bc b7 76 a2 bc c8 b6 94 bd 5c e1 90 3d
       -0.014979744 -0.019831998 -0.07261425 0.07074234
0003f0 00 13 95 3d f0 33 9e bd 67 a4 af 3d c4 ea d1 bc
       0.072790146 -0.0772475 0.08576279 -0.02562464

decoder.0.bias f4 [140]
000000 b1 d0 85 bd 05 91 a6 bc 72 84 53 bd 11 db c8 3c
       -0.06533945 -0.020332823 -0.05163998 0.024518522
000010 62 b5 10 bc ec 15 96 3d e7 24 96 3d 6b 6c 8f 3d
       -0.0088323075 0.073284 0.07331257 0.07003101
000020 3a 74 ae 3c 6d fe a6 3d 2f 44 9b 3d 17 fe 89 3d
       0.021295656 0.081539966 0.07581364 0.06737917
000030 b5 42 e4 3c 0d b1 80 3d 26 48 c3 3d a3 d9 9c bd
       0.02786384 0.0628377 0.095352456 -0.076586984
000040 92 a9 a4 bd 20 0b 60 3d a2 5b 6d 3d cb f0 1d 3d
       -0.080401555 0.05469811 0.057948716 0.038559716
000050 0e 9a 6a 3d a4 01 b3 3d ed 25 9a 3c f7 64 1f bc
       0.057275824 0.08740547 0.018816913 -0.009728662
000060 a0 01 90 3d 37 09 94 bd 47 b8 44 3c bd 3c 9b bd
       0.0703156 -0.0722832 0.012006826 -0.07579944
000070 69 34 59 3c 22 88 b1 3a b3 e3 94 3d fa c5 07 bd
       0.013257124 0.0013544599 0.07269993 -0.03314779
000080 65 b2 80 bc ba 3d a3 bd b9 4d 63 bd 53 72 aa 3d
       -0.015710065 -0.07970758 -0.055494044 0.08322587
000090 03 e7 11 bd 28 9d 8a 3d ab e4 20 bd 74 93 94 bd
       -0.0356207 0.067682564 -0.039280575 -0.07254687
0000a0 aa ee 5a bd 1a 04 25 3d 90 6b 62 3d f5 76 a6 bd
       -0.053450264 0.040287115 0.05527836 -0.08128158
0000b0 f2 bf 10 bc 46 09 01 3d 60 7c bc 3d 96 44 5e bd
       -0.008834826 0.031502984 0.0920341 -0.054264627
0000c0 e7 c7 93 bb 0b ef f6 3b a2 b6 55 bd 56 09 64 bd
       -0.004509914 0.0075358204 -0.052176125 -0.055672966
0000d0 fd bf 42 3d f9 1a 7e 3b bf ad 4e bd fc 67 37 bc
       0.047546376 0.0038773401 -0.050458666 -0.011194225
0000e0 41 e0 5e 3c 05 e5 0a bd 7e 61 37 bc c7 a6 55 bd
       0.013603271 -0.033909816 -0.011192678 -0.052161004
0000f0 05 ec cb 3c c4 1c 0d bc 6a df b7 bd d5 60 9d 3d
       0.024892816 -0.008612815 -0.0897816 0.07684485
000100 19 0d aa 3c 40 03 9a bc bd f6 d4 bb e1 b7 87 bd
       0.020758199 -0.018800378 -0.00649914 -0.06626869
000110 fc bc a6 3c 28 a2 97 bb 3d f3 93 bc 86 78 4c 3d
       0.020353787 -0.004627485 -0.018060321 0.049919628
000120 af 22 53 bd 6f 37 a8 bd 74 b2 01 3c 8d 71 25 3d
       -0.05154675 -0.08213698 0.007916082 0.040391494
000130 13 37 32 3d 57 e5 84 bc a7 13 36 3d 40 6f e5 bb
       0.043509554 -0.016222639 0.044452336 -0.0070017874
000140 c7 44 4c 3c 5e 66 cb 3c 3e 3b 50 bd 87 b0 8b 3d
       0.01246757 0.024829086 -0.050837748 0.06820779
000150 dd fa 14 3d ae fb 91 bd de 10 ad bb 79 a4 38 bd
       0.036372054 -0.07128082 -0.0052815517 -0.04507873
000160 b8 a6 a5 3b b2 e0 77 3d 5f 5e 29 3c f2 44 58 3d
       0.005055275 0.06051702 0.010337441 0.052800126
000170 f9 15 a8 3d 6c 49 14 3d e1 0a a7 3c 96 98 93 3d
       0.08207316 0.036202833 0.02039093 0.07206838
000180 dd e4 1c bd c9 94 8e 3d be 39 01 bd 22 b3 a8 bd
       -0.0383042 0.06961972 -0.031549208 -0.08237292
000190 66 c6 56 3d 9d 8d 46 3d 11 85 9f bd da 0e 53 bd
       0.0524353 0.048474897 -0.07789052 -0.051527835
0001a0 82 ca 9e bd f5 da 32 3d c9 1d 5d bd 67 f7 05 bd
       -0.07753469 0.043665845 -0.053983483 -0.032706644
0001b0 e8 ec bc 3d 71 d9 b2 3c 6f 41 0e 3d 81 0c c0 ba
       0.09224874 0.0218322 0.03473037 -0.0014652164
0001c0 32 d7 05 bd 22 bb d0 bb 9f 97 1c bc dc fd 70 3d
       -0.03267593 -0.006369964 -0.009557634 0.05883585
0001d0 7a a5 32 3d 98 f0 e1 3a c9 4b c1 bb 36 20 a4 3c
       0.043614842 0.001723784 -0.005898927 0.02003489
0001e0 e8 64 af 3d 7f 60 8c 3d 98 39 3a bd db b2 a4 3d
       0.08564168 0.06854343 -0.045465082 0.080419265
0001f0 a9 47 9b 3d 61 d3 9a 3d 60 b7 a9 bd 8f ae 99 bd
       0.075820275 0.075598486 -0.08286929 -0.075039975
000200 6e 3a 6c 3d 82 eb eb 3c 0b f5 82 bd b9 89 56 bd
       0.05767291 0.028798822 -0.063943945 -0.052377436
000210 1f 62 1c 3d dd f7 08 3d 5f b5 a7 bd a1 e8 b4 3d
       0.038179513 0.033439506 -0.08188891 0.08833433
000220 aa 11 85 3d 34 8f 6a 3c 64 89 92 3d c0 62 5f bd
       0.0649751 0.014316369 0.071551114 -0.054537535
